#map = affine_map<(d0, d1) -> (d0, d1)>
#map1 = affine_map<(d0, d1) -> (d0, 0)>
#sparse = #sparse_tensor.encoding<{ map = (d0, d1) -> (d0 : dense, d1 : compressed) }>
module {
  func.func @generated_func() -> tensor<512x512xf32, #sparse> {
    %cst = arith.constant 0.000000e+00 : f32
    %c0_i64 = arith.constant 0 : i64
    %cst_0 = arith.constant 0xFF800000 : f32
    %0 = tensor.empty() : tensor<512x512xf32, #sparse>
    %1 = linalg.fill ins(%cst : f32) outs(%0 : tensor<512x512xf32, #sparse>) -> tensor<512x512xf32, #sparse>
    %2 = tensor.empty() : tensor<512x512xf32, #sparse>
    %3 = linalg.fill ins(%cst : f32) outs(%2 : tensor<512x512xf32, #sparse>) -> tensor<512x512xf32, #sparse>
    %4 = linalg.matmul {cast = #linalg.type_fn<cast_signed>} ins(%1, %1 : tensor<512x512xf32, #sparse>, tensor<512x512xf32, #sparse>) outs(%3 : tensor<512x512xf32, #sparse>) -> tensor<512x512xf32, #sparse>
    %5 = tensor.empty() : tensor<512x512xf32, #sparse>
    %6 = linalg.fill ins(%cst : f32) outs(%5 : tensor<512x512xf32, #sparse>) -> tensor<512x512xf32, #sparse>
    %7 = linalg.matmul {cast = #linalg.type_fn<cast_signed>} ins(%1, %4 : tensor<512x512xf32, #sparse>, tensor<512x512xf32, #sparse>) outs(%6 : tensor<512x512xf32, #sparse>) -> tensor<512x512xf32, #sparse>
    %8 = tensor.empty() : tensor<512x512xf32, #sparse>
    %9 = linalg.fill ins(%cst : f32) outs(%8 : tensor<512x512xf32, #sparse>) -> tensor<512x512xf32, #sparse>
    %10 = linalg.generic {indexing_maps = [#map, #map], iterator_types = ["parallel", "parallel"]} ins(%7 : tensor<512x512xf32, #sparse>) outs(%9 : tensor<512x512xf32, #sparse>) {
    ^bb0(%in: f32, %out: f32):
      %64 = arith.cmpf ugt, %in, %cst : f32
      %65 = arith.select %64, %in, %cst : f32
      linalg.yield %65 : f32
    } -> tensor<512x512xf32, #sparse>
    %11 = tensor.empty() : tensor<512x512xf32, #sparse>
    %12 = linalg.fill ins(%cst : f32) outs(%11 : tensor<512x512xf32, #sparse>) -> tensor<512x512xf32, #sparse>
    %13 = linalg.matmul {cast = #linalg.type_fn<cast_signed>} ins(%1, %10 : tensor<512x512xf32, #sparse>, tensor<512x512xf32, #sparse>) outs(%12 : tensor<512x512xf32, #sparse>) -> tensor<512x512xf32, #sparse>
    %14 = tensor.empty() : tensor<512x512xf32, #sparse>
    %15 = linalg.fill ins(%cst : f32) outs(%14 : tensor<512x512xf32, #sparse>) -> tensor<512x512xf32, #sparse>
    %16 = linalg.matmul {cast = #linalg.type_fn<cast_signed>} ins(%1, %13 : tensor<512x512xf32, #sparse>, tensor<512x512xf32, #sparse>) outs(%15 : tensor<512x512xf32, #sparse>) -> tensor<512x512xf32, #sparse>
    %17 = tensor.empty() : tensor<512x512xf32, #sparse>
    %18 = linalg.fill ins(%cst : f32) outs(%17 : tensor<512x512xf32, #sparse>) -> tensor<512x512xf32, #sparse>
    %19 = linalg.generic {indexing_maps = [#map, #map], iterator_types = ["parallel", "parallel"]} ins(%16 : tensor<512x512xf32, #sparse>) outs(%18 : tensor<512x512xf32, #sparse>) {
    ^bb0(%in: f32, %out: f32):
      %64 = arith.cmpf ugt, %in, %cst : f32
      %65 = arith.select %64, %in, %cst : f32
      linalg.yield %65 : f32
    } -> tensor<512x512xf32, #sparse>
    %20 = tensor.empty() : tensor<512x512xf32, #sparse>
    %21 = linalg.fill ins(%cst : f32) outs(%20 : tensor<512x512xf32, #sparse>) -> tensor<512x512xf32, #sparse>
    %22 = linalg.matmul {cast = #linalg.type_fn<cast_signed>} ins(%1, %19 : tensor<512x512xf32, #sparse>, tensor<512x512xf32, #sparse>) outs(%21 : tensor<512x512xf32, #sparse>) -> tensor<512x512xf32, #sparse>
    %23 = tensor.empty() : tensor<512x512xf32, #sparse>
    %24 = linalg.fill ins(%cst : f32) outs(%23 : tensor<512x512xf32, #sparse>) -> tensor<512x512xf32, #sparse>
    %25 = linalg.matmul {cast = #linalg.type_fn<cast_signed>} ins(%1, %22 : tensor<512x512xf32, #sparse>, tensor<512x512xf32, #sparse>) outs(%24 : tensor<512x512xf32, #sparse>) -> tensor<512x512xf32, #sparse>
    %26 = tensor.empty() : tensor<512x512xf32, #sparse>
    %27 = linalg.fill ins(%cst : f32) outs(%26 : tensor<512x512xf32, #sparse>) -> tensor<512x512xf32, #sparse>
    %28 = linalg.generic {indexing_maps = [#map, #map], iterator_types = ["parallel", "parallel"]} ins(%25 : tensor<512x512xf32, #sparse>) outs(%27 : tensor<512x512xf32, #sparse>) {
    ^bb0(%in: f32, %out: f32):
      %64 = arith.cmpf ugt, %in, %cst : f32
      %65 = arith.select %64, %in, %cst : f32
      linalg.yield %65 : f32
    } -> tensor<512x512xf32, #sparse>
    %29 = tensor.empty() : tensor<512x512xf32, #sparse>
    %30 = linalg.fill ins(%cst : f32) outs(%29 : tensor<512x512xf32, #sparse>) -> tensor<512x512xf32, #sparse>
    %31 = linalg.matmul {cast = #linalg.type_fn<cast_signed>} ins(%1, %28 : tensor<512x512xf32, #sparse>, tensor<512x512xf32, #sparse>) outs(%30 : tensor<512x512xf32, #sparse>) -> tensor<512x512xf32, #sparse>
    %32 = tensor.empty() : tensor<512x512xf32, #sparse>
    %33 = linalg.fill ins(%cst : f32) outs(%32 : tensor<512x512xf32, #sparse>) -> tensor<512x512xf32, #sparse>
    %34 = linalg.matmul {cast = #linalg.type_fn<cast_signed>} ins(%1, %31 : tensor<512x512xf32, #sparse>, tensor<512x512xf32, #sparse>) outs(%33 : tensor<512x512xf32, #sparse>) -> tensor<512x512xf32, #sparse>
    %35 = tensor.empty() : tensor<512x512xf32, #sparse>
    %36 = linalg.fill ins(%cst : f32) outs(%35 : tensor<512x512xf32, #sparse>) -> tensor<512x512xf32, #sparse>
    %37 = linalg.generic {indexing_maps = [#map, #map], iterator_types = ["parallel", "parallel"]} ins(%34 : tensor<512x512xf32, #sparse>) outs(%36 : tensor<512x512xf32, #sparse>) {
    ^bb0(%in: f32, %out: f32):
      %64 = arith.cmpf ugt, %in, %cst : f32
      %65 = arith.select %64, %in, %cst : f32
      linalg.yield %65 : f32
    } -> tensor<512x512xf32, #sparse>
    %38 = tensor.empty() : tensor<512x512xf32, #sparse>
    %39 = linalg.fill ins(%cst : f32) outs(%38 : tensor<512x512xf32, #sparse>) -> tensor<512x512xf32, #sparse>
    %40 = linalg.matmul {cast = #linalg.type_fn<cast_signed>} ins(%1, %37 : tensor<512x512xf32, #sparse>, tensor<512x512xf32, #sparse>) outs(%39 : tensor<512x512xf32, #sparse>) -> tensor<512x512xf32, #sparse>
    %41 = tensor.empty() : tensor<512x512xf32, #sparse>
    %42 = linalg.fill ins(%cst : f32) outs(%41 : tensor<512x512xf32, #sparse>) -> tensor<512x512xf32, #sparse>
    %43 = linalg.matmul {cast = #linalg.type_fn<cast_signed>} ins(%1, %40 : tensor<512x512xf32, #sparse>, tensor<512x512xf32, #sparse>) outs(%42 : tensor<512x512xf32, #sparse>) -> tensor<512x512xf32, #sparse>
    %44 = tensor.empty() : tensor<512x512xf32, #sparse>
    %45 = linalg.fill ins(%cst : f32) outs(%44 : tensor<512x512xf32, #sparse>) -> tensor<512x512xf32, #sparse>
    %46 = linalg.generic {indexing_maps = [#map, #map], iterator_types = ["parallel", "parallel"]} ins(%43 : tensor<512x512xf32, #sparse>) outs(%45 : tensor<512x512xf32, #sparse>) {
    ^bb0(%in: f32, %out: f32):
      %64 = arith.cmpf ugt, %in, %cst : f32
      %65 = arith.select %64, %in, %cst : f32
      linalg.yield %65 : f32
    } -> tensor<512x512xf32, #sparse>
    %47 = tensor.empty() : tensor<512x1xf32, #sparse>
    %48 = linalg.fill ins(%cst_0 : f32) outs(%47 : tensor<512x1xf32, #sparse>) -> tensor<512x1xf32, #sparse>
    %49 = tensor.empty() : tensor<512x1xi64>
    %50 = linalg.fill ins(%c0_i64 : i64) outs(%49 : tensor<512x1xi64>) -> tensor<512x1xi64>
    %51:2 = linalg.generic {indexing_maps = [#map, #map1, #map1], iterator_types = ["parallel", "reduction"]} ins(%46 : tensor<512x512xf32, #sparse>) outs(%48, %50 : tensor<512x1xf32, #sparse>, tensor<512x1xi64>) {
    ^bb0(%in: f32, %out: f32, %out_1: i64):
      %64 = linalg.index 1 : index
      %65 = arith.index_cast %64 : index to i64
      %66 = arith.maximumf %in, %out : f32
      %67 = arith.cmpf ogt, %in, %out : f32
      %68 = arith.select %67, %65, %out_1 : i64
      linalg.yield %66, %68 : f32, i64
    } -> (tensor<512x1xf32, #sparse>, tensor<512x1xi64>)
    %52 = tensor.empty() : tensor<512x512xf32, #sparse>
    %53 = linalg.fill ins(%cst : f32) outs(%52 : tensor<512x512xf32, #sparse>) -> tensor<512x512xf32, #sparse>
    %54 = linalg.generic {indexing_maps = [#map, #map1, #map], iterator_types = ["parallel", "parallel"]} ins(%46, %51#0 : tensor<512x512xf32, #sparse>, tensor<512x1xf32, #sparse>) outs(%53 : tensor<512x512xf32, #sparse>) {
    ^bb0(%in: f32, %in_1: f32, %out: f32):
      %64 = arith.subf %in, %in_1 : f32
      linalg.yield %64 : f32
    } -> tensor<512x512xf32, #sparse>
    %55 = tensor.empty() : tensor<512x512xf32, #sparse>
    %56 = linalg.fill ins(%cst : f32) outs(%55 : tensor<512x512xf32, #sparse>) -> tensor<512x512xf32, #sparse>
    %57 = linalg.exp ins(%54 : tensor<512x512xf32, #sparse>) outs(%56 : tensor<512x512xf32, #sparse>) -> tensor<512x512xf32, #sparse>
    %58 = tensor.empty() : tensor<512x1xf32, #sparse>
    %59 = linalg.fill ins(%cst : f32) outs(%58 : tensor<512x1xf32, #sparse>) -> tensor<512x1xf32, #sparse>
    %60 = linalg.generic {indexing_maps = [#map, #map1], iterator_types = ["parallel", "reduction"]} ins(%57 : tensor<512x512xf32, #sparse>) outs(%59 : tensor<512x1xf32, #sparse>) {
    ^bb0(%in: f32, %out: f32):
      %64 = arith.addf %in, %out : f32
      linalg.yield %64 : f32
    } -> tensor<512x1xf32, #sparse>
    %61 = tensor.empty() : tensor<512x512xf32, #sparse>
    %62 = linalg.fill ins(%cst : f32) outs(%61 : tensor<512x512xf32, #sparse>) -> tensor<512x512xf32, #sparse>
    %63 = linalg.generic {indexing_maps = [#map, #map1, #map], iterator_types = ["parallel", "parallel"]} ins(%57, %60 : tensor<512x512xf32, #sparse>, tensor<512x1xf32, #sparse>) outs(%62 : tensor<512x512xf32, #sparse>) {
    ^bb0(%in: f32, %in_1: f32, %out: f32):
      %64 = arith.divf %in, %in_1 : f32
      linalg.yield %64 : f32
    } -> tensor<512x512xf32, #sparse>
    return %63 : tensor<512x512xf32, #sparse>
  }
}

// #map = affine_map<(d0, d1) -> (d0, d1)>
// #map1 = affine_map<(d0, d1) -> (d1, d0)>
// #map2 = affine_map<(d0, d1) -> (d1)>
// #map3 = affine_map<(d0, d1) -> (d0, 0)>
// #map4 = affine_map<(d0, d1) -> (d0, 0)>
// #SPARSE = #sparse_tensor.encoding<{
//   map = (i,j) -> (i : compressed, j : compressed)
// }>
// #SPARSE1D = #sparse_tensor.encoding<{
//   map = (i) -> (i : dense)
// }>
// module attributes {torch.debug_module_name = "GCN"} {
//   ml_program.global private mutable @global_seed(dense<0> : tensor<i64>) : tensor<i64>
//   func.func @forward(%arg0: tensor<1767x50xf32>, %arg1: tensor<1767x1767xf32, #SPARSE>) -> tensor<1767x121xf32> {
//   // func.func @forward(%arg0: tensor<1767x50xf32>, %arg1: tensor<1767x1767xf32, #SPARSE>) -> tensor<1767x16xf32> {
//     %cst = arith.constant dense_resource<__elided__> : tensor<16x50xf32>
//     %cst_0 = arith.constant 0.000000e+00 : f32
//     %c0_i64 = arith.constant 0 : i64
//     %cst_1 = arith.constant 0xFF800000 : f32
//     %cst_2 = arith.constant dense_resource<__elided__> : tensor<121x16xf32>
//     %cst_3 = arith.constant dense_resource<__elided__> : tensor<16xf32>
//     %cst_4 = arith.constant dense_resource<__elided__> : tensor<121xf32>
//     %0 = tensor.empty() : tensor<1767x50xf32>
//     %1 = linalg.fill ins(%cst_0 : f32) outs(%0 : tensor<1767x50xf32>) -> tensor<1767x50xf32>

//     // Layer 1 Adj multiply
//     %2_clone1 = linalg.matmul ins(%arg1, %arg0 : tensor<1767x1767xf32, #SPARSE>, tensor<1767x50xf32>) outs(%1 : tensor<1767x50xf32>) -> tensor<1767x50xf32>
//     %3_clone1 = tensor.empty() : tensor<50x16xf32, #SPARSE>
//     %4_clone1 = linalg.generic {indexing_maps = [#map, #map1], iterator_types = ["parallel", "parallel"]} ins(%cst : tensor<16x50xf32>) outs(%3 : tensor<50x16xf32, #SPARSE>) {
//     ^bb0(%in: f32, %out: f32):
//       linalg.yield %in : f32
//     } -> tensor<50x16xf32, #SPARSE>
//     %5_clone1 = tensor.empty() : tensor<1767x16xf32>
//     %6_clone1 = linalg.fill ins(%cst_0 : f32) outs(%5 : tensor<1767x16xf32>) -> tensor<1767x16xf32>

//     // Layer 1 Linear1 multiply
//     %7_clone1 = linalg.matmul ins(%2, %4 : tensor<1767x50xf32>, tensor<50x16xf32, #SPARSE>) outs(%6 : tensor<1767x16xf32>) -> tensor<1767x16xf32>
    
//     // Layer 1 Linear1 bias
//     %8_clone1 = linalg.generic {indexing_maps = [#map, #map2, #map], iterator_types = ["parallel", "parallel"]} ins(%7, %cst_3 : tensor<1767x16xf32>, tensor<16xf32>) outs(%5 : tensor<1767x16xf32>) {
//     ^bb0(%in: f32, %in_5: f32, %out: f32):
//       %29 = arith.addf %in, %in_5 : f32
//       linalg.yield %29 : f32
//     } -> tensor<1767x16xf32>
//     %9_clone1 = linalg.generic {indexing_maps = [#map, #map], iterator_types = ["parallel", "parallel"]} ins(%8 : tensor<1767x16xf32>) outs(%5 : tensor<1767x16xf32>) {
//     ^bb0(%in: f32, %out: f32):
//       %29 = arith.cmpf ugt, %in, %cst_0 : f32
//       %30 = arith.select %29, %in, %cst_0 : f32
//       linalg.yield %30 : f32
//     } -> tensor<1767x16xf32>

//     // Layer 1 Adj multiply
//     %2 = linalg.matmul ins(%arg1, %arg0 : tensor<1767x1767xf32, #SPARSE>, tensor<1767x50xf32>) outs(%1 : tensor<1767x50xf32>) -> tensor<1767x50xf32>
//     %3 = tensor.empty() : tensor<50x16xf32, #SPARSE>
//     %4 = linalg.generic {indexing_maps = [#map, #map1], iterator_types = ["parallel", "parallel"]} ins(%cst : tensor<16x50xf32>) outs(%3 : tensor<50x16xf32, #SPARSE>) {
//     ^bb0(%in: f32, %out: f32):
//       linalg.yield %in : f32
//     } -> tensor<50x16xf32, #SPARSE>
//     %5 = tensor.empty() : tensor<1767x16xf32>
//     %6 = linalg.fill ins(%cst_0 : f32) outs(%5 : tensor<1767x16xf32>) -> tensor<1767x16xf32>

//     // Layer 1 Linear1 multiply
//     %7 = linalg.matmul ins(%2, %4 : tensor<1767x50xf32>, tensor<50x16xf32, #SPARSE>) outs(%6 : tensor<1767x16xf32>) -> tensor<1767x16xf32>
    
//     // Layer 1 Linear1 bias
//     %8 = linalg.generic {indexing_maps = [#map, #map2, #map], iterator_types = ["parallel", "parallel"]} ins(%7, %cst_3 : tensor<1767x16xf32>, tensor<16xf32>) outs(%5 : tensor<1767x16xf32>) {
//     ^bb0(%in: f32, %in_5: f32, %out: f32):
//       %29 = arith.addf %in, %in_5 : f32
//       linalg.yield %29 : f32
//     } -> tensor<1767x16xf32>
//     %9 = linalg.generic {indexing_maps = [#map, #map], iterator_types = ["parallel", "parallel"]} ins(%8 : tensor<1767x16xf32>) outs(%5 : tensor<1767x16xf32>) {
//     ^bb0(%in: f32, %out: f32):
//       %29 = arith.cmpf ugt, %in, %cst_0 : f32
//       %30 = arith.select %29, %in, %cst_0 : f32
//       linalg.yield %30 : f32
//     } -> tensor<1767x16xf32>


//     // Out layer Adj multiply
//     %10 = linalg.matmul ins(%arg1, %9 : tensor<1767x1767xf32, #SPARSE>, tensor<1767x16xf32>) outs(%6 : tensor<1767x16xf32>) -> tensor<1767x16xf32>
//     %11 = tensor.empty() : tensor<16x121xf32, #SPARSE>
//     %12 = linalg.generic {indexing_maps = [#map, #map1], iterator_types = ["parallel", "parallel"]} ins(%cst_2 : tensor<121x16xf32>) outs(%11 : tensor<16x121xf32, #SPARSE>) {
//     ^bb0(%in: f32, %out: f32):
//       linalg.yield %in : f32
//     } -> tensor<16x121xf32, #SPARSE>
//     %13 = tensor.empty() : tensor<1767x121xf32>
//     %14 = linalg.fill ins(%cst_0 : f32) outs(%13 : tensor<1767x121xf32>) -> tensor<1767x121xf32>
//     %15 = linalg.matmul ins(%10, %12 : tensor<1767x16xf32>, tensor<16x121xf32, #SPARSE>) outs(%14 : tensor<1767x121xf32>) -> tensor<1767x121xf32>
//     %16 = linalg.generic {indexing_maps = [#map, #map2, #map], iterator_types = ["parallel", "parallel"]} ins(%15, %cst_4 : tensor<1767x121xf32>, tensor<121xf32>) outs(%13 : tensor<1767x121xf32>) {
//     ^bb0(%in: f32, %in_5: f32, %out: f32):
//       %29 = arith.addf %in, %in_5 : f32
//       linalg.yield %29 : f32
//     } -> tensor<1767x121xf32>
//     %17 = tensor.empty() : tensor<1767x1xi64>
//     %18 = linalg.fill ins(%c0_i64 : i64) outs(%17 : tensor<1767x1xi64>) -> tensor<1767x1xi64>
//     %19 = tensor.empty() : tensor<1767x1xf32>
//     %20 = linalg.fill ins(%cst_1 : f32) outs(%19 : tensor<1767x1xf32>) -> tensor<1767x1xf32>
//     %21:2 = linalg.generic {indexing_maps = [#map, #map3, #map3], iterator_types = ["parallel", "reduction"]} ins(%16 : tensor<1767x121xf32>) outs(%20, %18 : tensor<1767x1xf32>, tensor<1767x1xi64>) {
//     ^bb0(%in: f32, %out: f32, %out_5: i64):
//       %29 = linalg.index 1 : index
//       %30 = arith.index_cast %29 : index to i64
//       %31 = arith.maximumf %in, %out : f32
//       %32 = arith.cmpf ogt, %in, %out : f32
//       %33 = arith.select %32, %30, %out_5 : i64
//       linalg.yield %31, %33 : f32, i64
//     } -> (tensor<1767x1xf32>, tensor<1767x1xi64>)
//     // %expanded = tensor.expand_shape %21#0 [[0, 1]] output_shape [1767, 1] : tensor<1767x1xf32> into tensor<1767x1xf32>
//     %22 = linalg.generic {indexing_maps = [#map, #map4, #map], iterator_types = ["parallel", "parallel"]} ins(%16, %21#0 : tensor<1767x121xf32>, tensor<1767x1xf32>) outs(%13 : tensor<1767x121xf32>) {
//     ^bb0(%in: f32, %in_5: f32, %out: f32):
//       %29 = arith.subf %in, %in_5 : f32
//       linalg.yield %29 : f32
//     } -> tensor<1767x121xf32>
//     %23 = linalg.generic {indexing_maps = [#map, #map], iterator_types = ["parallel", "parallel"]} ins(%22 : tensor<1767x121xf32>) outs(%13 : tensor<1767x121xf32>) {
//     ^bb0(%in: f32, %out: f32):
//       %29 = math.exp %in : f32
//       linalg.yield %29 : f32
//     } -> tensor<1767x121xf32>
//     %24 = tensor.empty() : tensor<1767x1xf32>
//     %25 = linalg.fill ins(%cst_0 : f32) outs(%24 : tensor<1767x1xf32>) -> tensor<1767x1xf32>
//     %26 = linalg.generic {indexing_maps = [#map, #map4], iterator_types = ["parallel", "reduction"]} ins(%23 : tensor<1767x121xf32>) outs(%25 : tensor<1767x1xf32>) {
//     ^bb0(%in: f32, %out: f32):
//       %29 = arith.addf %in, %out : f32
//       linalg.yield %29 : f32
//     } -> tensor<1767x1xf32>
//     %27 = linalg.generic {indexing_maps = [#map4, #map], iterator_types = ["parallel", "parallel"]} ins(%26 : tensor<1767x1xf32>) outs(%24 : tensor<1767x1xf32>) {
//     ^bb0(%in: f32, %out: f32):
//       %29 = math.log %in : f32
//       linalg.yield %29 : f32
//     } -> tensor<1767x1xf32>
//     %28 = linalg.generic {indexing_maps = [#map, #map4, #map], iterator_types = ["parallel", "parallel"]} ins(%23, %26 : tensor<1767x121xf32>, tensor<1767x1xf32>) outs(%13 : tensor<1767x121xf32>) {
//     ^bb0(%in: f32, %in_5: f32, %out: f32):
//       %29 = arith.divf %in, %in_5 : f32
//       linalg.yield %29 : f32
//     } -> tensor<1767x121xf32>
//     return %28 : tensor<1767x121xf32>
//     // return %9 : tensor<1767x16xf32>
//   }
// }

